…
13000 images is loaded!!
14000 images is loaded!!
15000 images is loaded!!
16000 images is loaded!!
17000 images is loaded!!
18000 images is loaded!!
19000 images is loaded!!
20000 images is loaded!!
21000 images is loaded!!
22000 images is loaded!!
23000 images is loaded!!
24000 images is loaded!!
25000 images is loaded!!
Done, now split to train, test, and validation data !!!
_________________________________________________________________
Layer (type)                 Output Shape              Param #   
=================================================================
input_1 (InputLayer)         (None, 128, 128, 3)       0         
_________________________________________________________________
conv2d_1 (Conv2D)            (None, 128, 128, 32)      896       
_________________________________________________________________
conv2d_2 (Conv2D)            (None, 128, 128, 32)      9248      
_________________________________________________________________
batch_normalization_1 (Batch (None, 128, 128, 32)      128       
_________________________________________________________________
max_pooling2d_1 (MaxPooling2 (None, 64, 64, 32)        0         
_________________________________________________________________
dropout_1 (Dropout)          (None, 64, 64, 32)        0         
_________________________________________________________________
conv2d_3 (Conv2D)            (None, 64, 64, 64)        18496     
_________________________________________________________________
conv2d_4 (Conv2D)            (None, 64, 64, 64)        36928     
_________________________________________________________________
batch_normalization_2 (Batch (None, 64, 64, 64)        256       
_________________________________________________________________
max_pooling2d_2 (MaxPooling2 (None, 32, 32, 64)        0         
_________________________________________________________________
dropout_2 (Dropout)          (None, 32, 32, 64)        0         
_________________________________________________________________
conv2d_5 (Conv2D)            (None, 32, 32, 128)       73856     
_________________________________________________________________
conv2d_6 (Conv2D)            (None, 32, 32, 128)       147584    
_________________________________________________________________
batch_normalization_3 (Batch (None, 32, 32, 128)       512       
_________________________________________________________________
max_pooling2d_3 (MaxPooling2 (None, 16, 16, 128)       0         
_________________________________________________________________
dropout_3 (Dropout)          (None, 16, 16, 128)       0         
_________________________________________________________________
flatten_1 (Flatten)          (None, 32768)             0         
_________________________________________________________________
dense_1 (Dense)              (None, 512)               16777728  
_________________________________________________________________
batch_normalization_4 (Batch (None, 512)               2048      
_________________________________________________________________
dropout_4 (Dropout)          (None, 512)               0         
_________________________________________________________________
dense_2 (Dense)              (None, 1)                 513       
=================================================================
Total params: 17,068,193
Trainable params: 17,066,721
Non-trainable params: 1,472
_________________________________________________________________
Epoch 1/200
 - 74s - loss: 0.8067 - acc: 0.5778 - val_loss: 5.8931 - val_acc: 0.6204
Epoch 2/200
 - 67s - loss: 0.6399 - acc: 0.6485 - val_loss: 7.5249 - val_acc: 0.5268
Epoch 3/200
…
